theFuckOpenmvDeepLearning/numberSearch/ei-find_number-openmv-v3/trained.tflite (tflite, 727240 bytes, 54 tensors)

sequential/dense/Tensordot/MatMul;StatefulPartitionedCall/sequential/dense/Tensordot/MatMul i1 [16, 1280] scale=0.0015037265 zero_point=0
-0.015037265 -0.009022359 0.034585707 -0.009022359 0.02556335 -0.031578258 -0.0511267 0.019548444
-0.045111794 0.069171414 0.03909689 -0.045111794 0.037593164 0.024059623 0.037593164 0.07518633
0.010526085 -0.02105217 -0.049622975 0.02556335 -0.05864533 0.034585707 -0.034585707 -0.018044718
-0.05864533 -0.049622975 0.066163965 0.049622975 -0.024059623 -0.04360807 0.06014906 -0.037593164
0.027067076 0.024059623 0.04360807 0.052630424 0.0015037265 -0.031578258 0.019548444 -0.018044718
-0.0511267 -0.064660236 -0.037593164 -0.024059623 -0.013533538 -0.06766769 0.019548444 0.022555897
0.07819378 0.061652787 -0.094734766 -0.024059623 0.033081982 -0.022555897 0.069171414 0.04210434
0.0736826 -0.045111794 -0.07217887 0.024059623 0.04210434 0.049622975 -0.006014906 0.033081982
-0.04360807 -0.045111794 0.052630424 0.0015037265 0.016540991 0.012029812 -0.016540991 -0.0015037265
-0.033081982 -0.016540991 -0.012029812 0.03909689 -0.052630424 -0.063156515 0.018044718 0.03909689
-0.057141606 0.02556335 0.0015037265 0.028570803 0.063156515 0.06766769 -0.010526085 0.009022359
0.054134153 -0.08420868 -0.009022359 -0.03007453 -0.045111794 -0.06766769 0.04360807 -0.048119247
-0.05864533 0.031578258 0.05563788 0.0 -0.03909689 0.06766769 -0.0015037265 0.09323104
-0.04360807 -0.015037265 0.048119247 -0.031578258 0.0 0.012029812 0.049622975 -0.015037265
-0.03909689 0.045111794 -0.045111794 0.054134153 0.019548444 -0.028570803 0.010526085 -0.049622975
-0.0015037265 0.033081982 0.052630424 -0.012029812 0.0015037265 -0.012029812 -0.069171414 0.033081982
0.02105217 0.009022359 -0.066163965 0.019548444 -0.052630424 0.018044718 0.03007453 -0.013533538
0.034585707 -0.003007453 -0.04661552 -0.036089435 -0.010526085 0.04360807 0.063156515 0.022555897
-0.031578258 0.0511267 0.022555897 0.0015037265 -0.015037265 0.04210434 0.07217887 -0.045111794
-0.0075186323 0.06014906 -0.031578258 -0.03007453 -0.016540991 -0.052630424 0.003007453 -0.045111794
-0.05864533 -0.027067076 0.037593164 0.015037265 0.07819378 0.013533538 0.03007453 -0.05864533
-0.027067076 0.028570803 -0.036089435 -0.02105217 -0.02556335 0.0015037265 -0.052630424 -0.048119247
0.024059623 0.05563788 0.003007453 -0.037593164 0.0045111794 0.06014906 0.034585707 -0.07819378
-0.06766769 0.04661552 -0.0511267 -0.009022359 -0.02556335 0.061652787 0.010526085 -0.054134153
0.05864533 -0.033081982 -0.009022359 0.0015037265 -0.066163965 0.0015037265 -0.022555897 0.022555897
-0.048119247 -0.069171414 0.0511267 0.07067514 -0.0511267 0.05864533 -0.04360807 -0.08420868
-0.033081982 -0.036089435 -0.006014906 -0.02105217 -0.003007453 -0.02556335 -0.027067076 0.02556335
-0.018044718 -0.05563788 0.048119247 -0.09774222 0.04210434 -0.02105217 0.033081982 -0.061652787
-0.031578258 0.018044718 0.04360807 0.02556335 0.049622975 -0.0736826 0.019548444 -0.02556335
0.010526085 0.02105217 0.02105217 0.033081982 0.09022359 0.012029812 -0.054134153 -0.061652787
-0.08721614 -0.013533538 -0.05864533 -0.0075186323 -0.018044718 0.009022359 0.02105217 0.018044718
-0.052630424 -0.003007453 -0.08571241 0.064660236 -0.0015037265 -0.048119247 -0.022555897 0.0075186323
00000000: f6fa 17fa 11eb de0d e22e 1ae2 1910 1932
00000010: 07f2 df11 d917 e9f4 d9df 2c21 f0e3 28e7
00000020: 1210 1d23 01eb 0df4 ded5 e7f0 f7d3 0d0f
00000030: 3429 c1f0 16f1 2e1c 31e2 d010 1c21 fc16
00000040: e3e2 2301 0b08 f5ff eaf5 f81a ddd6 0c1a
00000050: da11 0113 2a2d f906 24c8 faec e2d3 1de0
00000060: d915 2500 e62d ff3e e3f6 20eb 0008 21f6
00000070: e61e e224 0ded 07df ff16 23f8 01f8 d216
00000080: 0e06 d40d dd0c 14f7 17fe e1e8 f91d 2a0f
00000090: eb22 0f01 f61c 30e2 fb28 ebec f5dd 02e2
000000a0: d9ee 190a 3409 14d9 ee13 e8f2 ef01 dde0
000000b0: 1025 02e7 0328 17cc d31f defa ef29 07dc
000000c0: 27ea fa01 d401 f10f e0d2 222f de27 e3c8
000000d0: eae8 fcf2 feef ee11 f4db 20bf 1cf2 16d7
000000e0: eb0c 1d11 21cf 0def 070e 0e16 3c08 dcd7
000000f0: c6f7 d9fb f406 0e0c ddfe c72b ffe0 f105

sequential/dense_1/MatMul;StatefulPartitionedCall/sequential/dense_1/MatMul i1 [8, 144] scale=0.0033569748 zero_point=0
-0.11078017 0.17120571 0.030212773 0.12085109 -0.19134757 0.12420807 -0.08392437 -0.13763596
-0.023498824 -0.0805674 -0.030212773 -0.016784875 0.15106386 -0.046997648 -0.18127663 0.104066215
-0.22491731 0.100709245 -0.19134757 0.107423194 0.12420807 -0.05706857 0.026855798 0.0402837
0.010070925 -0.07721042 -0.013427899 -0.13763596 -0.030212773 0.07385345 -0.11078017 0.013427899
-0.026855798 0.107423194 -0.15777782 -0.15777782 -0.14099294 0.010070925 -0.19134757 0.043640673
0.043640673 -0.15777782 -0.013427899 0.046997648 -0.107423194 0.010070925 -0.050354622 0.134279
-0.107423194 0.010070925 0.16449177 0.19470453 0.11749412 0.11413714 0.010070925 0.11749412
-0.030212773 -0.15777782 0.15106386 0.030212773 -0.053711597 0.0 -0.02014185 -0.22827429
-0.20141849 0.22491731 0.13092202 0.12420807 -0.16784874 0.026855798 0.12420807 -0.134279
0.0671395 0.02014185 0.15442084 -0.0671395 0.0067139496 0.17791967 0.09735227 -0.12085109
-0.05706857 0.19134757 0.19134757 0.21148941 0.060425546 -0.09063832 -0.17120571 -0.1745627
0.13092202 0.0033569748 0.026855798 -0.013427899 0.053711597 0.0402837 0.100709245 -0.23163126
-0.07385345 0.16449177 -0.016784875 0.13092202 -0.15777782 -0.134279 -0.0402837 0.023498824
-0.036926724 -0.030212773 0.18799059 -0.02014185 0.12420807 -0.08728135 0.030212773 -0.23498824
-0.15777782 0.107423194 -0.104066215 0.12756504 -0.104066215 0.11413714 -0.1611348 0.036926724
0.268558 0.05706857 0.100709245 -0.18463361 -0.05706857 -0.15777782 0.13092202 -0.100709245
0.15106386 -0.18127663 -0.13763596 0.09735227 -0.05706857 -0.05706857 -0.19470453 0.043640673
0.12085109 0.17791967 0.093995295 -0.07721042 -0.09063832 -0.07721042 -0.20477547 0.016784875
0.15777782 -0.023498824 0.07721042 -0.104066215 -0.11749412 -0.16784874 0.093995295 0.11413714
-0.0033569748 -0.26184404 -0.09735227 0.1477069 -0.12420807 0.22156034 -0.010070925 -0.030212773
-0.12420807 -0.09735227 -0.053711597 -0.18799059 0.0 0.0 -0.11078017 0.20477547
-0.16784874 -0.25848705 -0.100709245 0.0671395 0.060425546 -0.16449177 -0.09735227 0.060425546
0.093995295 -0.24505916 -0.15442084 -0.023498824 0.11749412 -0.13092202 -0.100709245 0.13763596
0.043640673 -0.11078017 0.03356975 0.17791967 -0.13763596 0.20813243 0.17791967 -0.09063832
-0.22156034 -0.19470453 -0.17120571 0.0671395 0.07385345 -0.11749412 0.046997648 -0.07721042
0.12420807 -0.12085109 -0.16449177 0.07385345 0.050354622 -0.023498824 0.093995295 0.030212773
-0.15442084 0.15777782 -0.046997648 0.16784874 0.18799059 -0.13763596 -0.22491731 0.100709245
-0.02014185 0.16784874 0.12085109 -0.107423194 -0.18127663 0.09735227 -0.010070925 0.026855798
0.13092202 -0.046997648 0.093995295 0.016784875 0.104066215 -0.07385345 0.0402837 0.107423194
-0.0033569748 -0.036926724 -0.1745627 0.08392437 0.050354622 -0.15777782 -0.016784875 -0.09735227
0.16449177 -0.134279 -0.07049647 0.24841614 0.19806151 0.05706857 0.18799059 0.043640673
0.13763596 -0.104066215 -0.07049647 -0.093995295 0.046997648 -0.09735227 -0.07721042 -0.050354622
00000000: df33 0924 c725 e7d7 f9e8 f7fb 2df2 ca1f
00000010: bd1e c720 25ef 080c 03e9 fcd7 f716 df04
00000020: f820 d1d1 d603 c70d 0dd1 fc0e e003 f128
00000030: e003 313a 2322 0323 f7d1 2d09 f000 fabc
00000040: c443 2725 ce08 25d8 1406 2eec 0235 1ddc
00000050: ef39 393f 12e5 cdcc 2701 08fc 100c 1ebb
00000060: ea31 fb27 d1d8 f407 f5f7 38fa 25e6 09ba
00000070: d120 e126 e122 d00b 5011 1ec9 efd1 27e2
00000080: 2dca d71d efef c60d 2435 1ce9 e5e9 c305
00000090: 2ff9 17e1 ddce 1c22 ffb2 e32c db42 fdf7
000000a0: dbe3 f0c8 0000 df3d ceb3 e214 12cf e312
000000b0: 1cb7 d2f9 23d9 e229 0ddf 0a35 d73e 35e5
000000c0: bec6 cd14 16dd 0ee9 25dc cf16 0ff9 1c09
000000d0: d22f f232 38d7 bd1e fa32 24e0 ca1d fd08
000000e0: 27f2 1c05 1fea 0c20 fff5 cc19 0fd1 fbe3
000000f0: 31d8 eb4a 3b11 380d 29e1 ebe4 0ee3 e9f1

sequential/model/Conv1/Conv2D;StatefulPartitionedCall/sequential/model/Conv1/Conv2D i1 [16, 3, 3, 3]
0 0 0 0 0 0 0 0
0 0 0 0 0 0 0 0
0 0 0 0 0 0 0 0
0 0 0 46 -5 29 -5 -24
14 -127 -121 -68 2 -6 -2 -22
2 -6 1 -32 4 -4 16 -3
-5 6 -3 39 -19 12 30 -6
-6 77 114 1 41 -39 8 10
12 -1 71 127 -28 21 -5 -6
50 -66 20 75 -43 -21 34 -54
15 7 33 4 33 95 22 1
6 -4 21 36 6 68 127 27
-12 -18 4 6 4 5 27 27
9 0 -3 4 42 76 -8 18
86 -10 -16 9 -3 49 96 53
35 127 33 31 53 -16 56 79
35 46 122 13 -25 21 18 8
2 -119 -3 1 -103 -5 28 -27
5 -42 -127 0 -44 -114 -1 13
-23 -2 9 -17 3 -1 -10 2
14 -10 25 -63 34 48 -87 40
10 -20 9 37 -96 62 64 -127
72 8 -28 17 21 -34 14 15
-44 26 -12 8 0 -31 17 4
-108 -39 1 -24 23 2 -13 -8
1 -127 -93 -7 -6 -5 5 -23
30 -9 -13 11 0 -22 25 -3
110 127 73 105 125 67 106 119
64 110 120 67 98 112 58 104
113 57 104 114 65 98 114 60
102 111 58 -22 -4 8 -13 -6
0 4 4 -9 95 112 -9 74
00000000: 0000 0000 0000 0000 0000 0000 0000 0000
00000010: 0000 0000 0000 0000 0000 002e fb1d fbe8
00000020: 0e81 87bc 02fa feea 02fa 01e0 04fc 10fd
00000030: fb06 fd27 ed0c 1efa fa4d 7201 29d9 080a
00000040: 0cff 477f e415 fbfa 32be 144b d5eb 22ca
00000050: 0f07 2104 215f 1601 06fc 1524 0644 7f1b
00000060: f4ee 0406 0405 1b1b 0900 fd04 2a4c f812
00000070: 56f6 f009 fd31 6035 237f 211f 35f0 384f
00000080: 232e 7a0d e715 1208 0289 fd01 99fb 1ce5
00000090: 05d6 8100 d48e ff0d e9fe 09ef 03ff f602
000000a0: 0ef6 19c1 2230 a928 0aec 0925 a03e 4081
000000b0: 4808 e411 15de 0e0f d41a f408 00e1 1104
000000c0: 94d9 01e8 1702 f3f8 0181 a3f9 fafb 05e9
000000d0: 1ef7 f30b 00ea 19fd 6e7f 4969 7d43 6a77
000000e0: 406e 7843 6270 3a68 7139 6872 4162 723c
000000f0: 666f 3aea fc08 f3fa 0004 04f7 5f70 f74a

sequential/model/expanded_conv_project/Conv2D;StatefulPartitionedCall/sequential/model/expanded_conv_project/Conv2D i1 [8, 1, 1, 16]
0 -22 2 -1 126 0 -1 1
0 -127 -92 -4 0 123 -2 0
0 -29 0 85 73 14 23 7
0 -5 127 -43 0 29 -12 0
0 1 -1 -12 -58 4 10 2
0 3 -17 1 0 127 -8 0
0 -11 -20 -127 81 24 70 17
0 61 -1 39 0 -1 19 0
0 50 -26 35 -55 31 127 10
0 -61 17 -9 0 -6 16 0
0 -16 -11 0 -23 -23 -12 16
0 9 -5 -44 0 -5 127 0
0 18 -3 1 50 -22 -24 -8
0 -106 114 61 0 127 61 0
0 14 -16 127 7 -3 17 9
0 68 -52 76 0 -8 49 0
00000000: 00ea 02ff 7e00 ff01 0081 a4fc 007b fe00
00000010: 00e3 0055 490e 1707 00fb 7fd5 001d f400
00000020: 0001 fff4 c604 0a02 0003 ef01 007f f800
00000030: 00f5 ec81 5118 4611 003d ff27 00ff 1300
00000040: 0032 e623 c91f 7f0a 00c3 11f7 00fa 1000
00000050: 00f0 f500 e9e9 f410 0009 fbd4 00fb 7f00
00000060: 0012 fd01 32ea e8f8 0096 723d 007f 3d00
00000070: 000e f07f 07fd 1109 0044 cc4c 00f8 3100

sequential/model/block_1_expand/Conv2D;StatefulPartitionedCall/sequential/model/block_1_expand/Conv2D i1 [48, 1, 1, 8]
16 -127 50 -44 28 -17 -50 23
71 66 -22 -95 11 -12 -79 127
31 6 -46 126 53 127 48 93
81 73 -82 127 -94 -7 -9 14
-35 -102 74 10 6 31 -45 -127
20 6 -34 42 3 -31 40 127
57 -18 -127 -89 110 14 50 -36
127 17 21 -23 29 -6 86 -60
21 -98 13 104 2 24 -12 -127
105 -127 14 -2 -13 13 -121 88
-127 -36 -117 19 -11 5 -102 53
-21 -43 -8 -105 -127 -34 47 -16
16 7 -39 67 -75 -23 58 127
0 0 0 0 0 0 0 0
-6 -33 -6 11 42 127 46 41
42 2 17 -127 66 39 -56 74
0 0 0 0 0 0 0 0
15 24 127 22 -27 -9 29 30
89 -127 25 33 -5 20 -118 3
-127 -13 28 75 -57 -58 -99 70
34 32 -42 113 -22 -127 -5 61
56 22 127 9 -14 -10 67 11
-78 -17 -127 3 5 10 -100 4
-101 127 -18 -21 8 -11 127 -77
6 -54 -51 85 -9 -60 98 127
12 45 35 31 127 124 -76 -52
-84 -30 -127 -3 7 14 -92 0
1 -26 -31 7 -42 127 66 49
2 -18 -20 40 23 127 51 60
89 29 127 2 -18 -15 86 -6
-80 127 -24 -27 10 -5 100 -49
-43 -96 -20 3 32 -72 127 110
00000000: 1081 32d4 1cef ce17 4742 eaa1 0bf4 b17f
00000010: 1f06 d27e 357f 305d 5149 ae7f a2f9 f70e
00000020: dd9a 4a0a 061f d381 1406 de2a 03e1 287f
00000030: 39ee 81a7 6e0e 32dc 7f11 15e9 1dfa 56c4
00000040: 159e 0d68 0218 f481 6981 0efe f30d 8758
00000050: 81dc 8b13 f505 9a35 ebd5 f897 81de 2ff0
00000060: 1007 d943 b5e9 3a7f 0000 0000 0000 0000
00000070: fadf fa0b 2a7f 2e29 2a02 1181 4227 c84a
00000080: 0000 0000 0000 0000 0f18 7f16 e5f7 1d1e
00000090: 5981 1921 fb14 8a03 81f3 1c4b c7c6 9d46
000000a0: 2220 d671 ea81 fb3d 3816 7f09 f2f6 430b
000000b0: b2ef 8103 050a 9c04 9b7f eeeb 08f5 7fb3
000000c0: 06ca cd55 f7c4 627f 0c2d 231f 7f7c b4cc
000000d0: ace2 81fd 070e a400 01e6 e107 d67f 4231
000000e0: 02ee ec28 177f 333c 591d 7f02 eef1 56fa
000000f0: b07f e8e5 0afb 64cf d5a0 ec03 20b8 7f6e

sequential/model/block_1_project/Conv2D;StatefulPartitionedCall/sequential/model/block_1_project/Conv2D i1 [8, 1, 1, 48]
-12 -1 9 -93 10 26 6 6
3 6 2 -5 97 0 1 6
0 -8 -6 0 77 -4 0 5
29 36 13 12 5 4 3 -127
10 6 -1 0 -28 1 -16 33
8 -26 -8 5 2 -2 4 2
-36 -8 -3 -6 44 26 -29 76
20 6 -31 -22 12 0 18 37
0 40 18 -47 0 21 127 20
-28 -2 54 4 21 -3 17 -11
14 -8 -8 -21 6 -54 10 4
-7 -8 -79 -8 -32 7 -48 -97
-59 15 -1 11 45 -11 29 25
-9 55 8 -6 3 0 6 53
0 12 -127 24 0 13 6 -16
-32 2 37 5 9 30 23 3
7 -7 -11 -13 11 5 4 0
37 -7 -30 0 24 -57 25 14
1 0 -1 8 -5 28 0 -3
65 18 -3 -2 26 0 -30 -8
0 0 -9 1 -3 0 6 -18
-12 -6 -9 -2 -8 -3 -1 -9
-49 44 -55 -2 6 0 3 -127
0 4 1 -51 -2 -1 -1 6
0 -3 80 34 3 -20 -2 -3
3 -4 -2 -8 -80 0 -11 4
0 9 6 0 66 4 1 -4
-15 31 -5 46 -7 -1 0 98
4 4 -1 -2 16 -12 -11 -18
-3 -127 3 3 -1 -3 0 1
-7 44 4 -8 3 46 26 12
-20 29 7 54 25 0 -127 -1
00000000: f4ff 09a3 0a1a 0606 0306 02fb 6100 0106
00000010: 00f8 fa00 4dfc 0005 1d24 0d0c 0504 0381
00000020: 0a06 ff00 e401 f021 08e6 f805 02fe 0402
00000030: dcf8 fdfa 2c1a e34c 1406 e1ea 0c00 1225
00000040: 0028 12d1 0015 7f14 e4fe 3604 15fd 11f5
00000050: 0ef8 f8eb 06ca 0a04 f9f8 b1f8 e007 d09f
00000060: c50f ff0b 2df5 1d19 f737 08fa 0300 0635
00000070: 000c 8118 000d 06f0 e002 2505 091e 1703
00000080: 07f9 f5f3 0b05 0400 25f9 e200 18c7 190e
00000090: 0100 ff08 fb1c 00fd 4112 fdfe 1a00 e2f8
000000a0: 0000 f701 fd00 06ee f4fa f7fe f8fd fff7
000000b0: cf2c c9fe 0600 0381 0004 01cd feff ff06
000000c0: 00fd 5022 03ec fefd 03fc fef8 b000 f504
000000d0: 0009 0600 4204 01fc f11f fb2e f9ff 0062
000000e0: 0404 fffe 10f4 f5ee fd81 0303 fffd 0001
000000f0: f92c 04f8 032e 1a0c ec1d 0736 1900 81ff

sequential/model/block_2_expand/Conv2D;StatefulPartitionedCall/sequential/model/block_2_expand/Conv2D i1 [48, 1, 1, 8]
77 29 -1 -8 127 26 -48 -24
-6 -2 2 127 9 -6 6 15
28 -127 -19 40 -6 -66 78 12
127 -31 -8 16 -10 -34 29 6
9 -47 127 -12 -10 -47 12 -93
68 2 2 -3 127 14 -10 -1
-15 93 -13 127 26 50 -72 -54
-6 127 -3 2 0 -13 15 -2
127 50 -4 6 -50 -23 -1 -37
-127 14 6 20 53 10 -8 2
-71 -8 13 127 39 28 -15 -3
-127 1 12 -64 34 7 -22 -45
127 25 2 16 -46 -12 4 -45
-11 77 -127 -8 5 101 -72 74
-49 -26 -13 127 21 10 -6 -25
-3 127 2 -3 0 -15 10 -50
-11 -127 -20 4 -9 -112 117 -28
20 127 1 -12 6 77 -86 -19
-8 44 -127 -1 8 54 -32 63
-74 18 2 1 -127 3 22 25
-127 -23 -1 1 75 -30 42 1
-64 -3 -2 2 -127 -4 18 6
-127 -25 0 -3 85 -16 36 50
-20 -24 -7 -8 -2 82 -127 -90
-8 40 -127 3 9 47 -19 76
99 -37 -1 127 -75 -12 10 -49
3 -20 -3 1 -9 121 127 -29
70 -8 -2 13 127 28 35 -19
0 127 -69 5 6 81 -30 123
-8 12 -5 -8 -2 88 -127 -85
3 -5 1 -127 -6 0 -3 -13
-66 4 3 2 -127 8 13 0
00000000: 4d1d fff8 7f1a d0e8 fafe 027f 09fa 060f
00000010: 1c81 ed28 fabe 4e0c 7fe1 f810 f6de 1d06
00000020: 09d1 7ff4 f6d1 0ca3 4402 02fd 7f0e f6ff
00000030: f15d f37f 1a32 b8ca fa7f fd02 00f3 0ffe
00000040: 7f32 fc06 cee9 ffdb 810e 0614 350a f802
00000050: b9f8 0d7f 271c f1fd 8101 0cc0 2207 ead3
00000060: 7f19 0210 d2f4 04d3 f54d 81f8 0565 b84a
00000070: cfe6 f37f 150a fae7 fd7f 02fd 00f1 0ace
00000080: f581 ec04 f790 75e4 147f 01f4 064d aaed
00000090: f82c 81ff 0836 e03f b612 0201 8103 1619
000000a0: 81e9 ff01 4be2 2a01 c0fd fe02 81fc 1206
000000b0: 81e7 00fd 55f0 2432 ece8 f9f8 fe52 81a6
000000c0: f828 8103 092f ed4c 63db ff7f b5f4 0acf
000000d0: 03ec fd01 f779 7fe3 46f8 fe0d 7f1c 23ed
000000e0: 007f bb05 0651 e27b f80c fbf8 fe58 81ab
000000f0: 03fb 0181 fa00 fdf3 be04 0302 8108 0d00

sequential/model/block_2_project/Conv2D;StatefulPartitionedCall/sequential/model/block_2_project/Conv2D i1 [8, 1, 1, 48]
-53 -12 -36 16 6 -25 0 2
-116 127 -39 115 117 7 72 -19
-7 -33 7 4 -8 -6 -22 -35
23 -95 10 65 -12 10 19 -38
-3 -78 108 20 -3 -6 -6 -18
116 -4 47 -24 -31 25 -17 -18
-1 33 127 5 -5 -24 1 -83
29 -1 22 6 -20 7 -6 -118
10 -55 9 5 -26 32 24 -34
-18 -8 14 1 12 -5 13 -1
-5 12 16 12 -12 -33 65 -57
11 36 -11 26 -15 8 25 -1
5 -49 17 -43 33 27 -6 -29
6 -1 -2 14 -10 58 6 -1
-38 127 -25 -34 -15 22 -38 -10
122 2 0 -7 -29 -9 2 -41
-8 -14 1 10 -10 -2 -14 7
16 -20 -19 0 2 26 -25 -40
1 -87 -2 8 3 -6 -10 -2
-7 -12 17 21 13 -9 49 2
-9 -21 3 23 -6 20 -23 3
6 52 1 7 -7 5 127 1
12 7 -3 -1 -21 -14 -7 12
-9 6 -9 27 -7 1 -1 34
-98 7 0 2 0 -38 1 7
40 -37 20 -18 -32 1 -12 -9
2 7 1 25 9 -28 14 3
-6 45 6 109 2 1 -7 -31
0 -127 -31 11 3 -6 2 1
-50 -5 -11 17 -57 3 6 6
-24 26 22 7 -47 11 -3 47
21 4 14 7 -5 -45 7 35
00000000: cbf4 dc10 06e7 0002 8c7f d973 7507 48ed
00000010: f9df 0704 f8fa eadd 17a1 0a41 f40a 13da
00000020: fdb2 6c14 fdfa faee 74fc 2fe8 e119 efee
00000030: ff21 7f05 fbe8 01ad 1dff 1606 ec07 fa8a
00000040: 0ac9 0905 e620 18de eef8 0e01 0cfb 0dff
00000050: fb0c 100c f4df 41c7 0b24 f51a f108 19ff
00000060: 05cf 11d5 211b fae3 06ff fe0e f63a 06ff
00000070: da7f e7de f116 daf6 7a02 00f9 e3f7 02d7
00000080: f8f2 010a f6fe f207 10ec ed00 021a e7d8
00000090: 01a9 fe08 03fa f6fe f9f4 1115 0df7 3102
000000a0: f7eb 0317 fa14 e903 0634 0107 f905 7f01
000000b0: 0c07 fdff ebf2 f90c f706 f71b f901 ff22
000000c0: 9e07 0002 00da 0107 28db 14ee e001 f4f7
000000d0: 0207 0119 09e4 0e03 fa2d 066d 0201 f9e1
000000e0: 0081 e10b 03fa 0201 cefb f511 c703 0606
000000f0: e81a 1607 d10b fd2f 1504 0e07 fbd3 0723

sequential/model/block_3_expand/Conv2D;StatefulPartitionedCall/sequential/model/block_3_expand/Conv2D i1 [48, 1, 1, 8]
-127 0 -2 74 -36 41 25 -30
29 73 47 21 16 -42 104 127
-40 -1 2 -1 -127 -13 12 3
100 -3 -13 -123 -127 17 35 -18
-127 45 -16 -10 71 -13 45 21
-102 -27 21 -9 -127 8 9 85
-16 -127 25 -17 13 3 -3 33
-66 -4 3 102 127 -33 -35 6
74 4 2 -127 0 -23 -45 -34
-5 -127 -8 -5 3 86 -52 86
-94 -5 -1 22 -127 71 63 -16
115 10 40 13 -59 -44 -33 -127
0 14 42 -7 10 -78 127 63
66 -27 -7 -14 125 127 119 -43
127 57 -13 19 -101 -19 -27 -19
-15 -127 16 -13 4 4 5 36
-52 -15 4 -1 -127 0 14 4
-26 103 -115 3 12 -127 108 -87
127 -28 -43 14 -60 26 11 102
127 -50 -21 -6 47 0 32 7
127 24 -17 121 -2 35 2 -57
8 32 -61 5 -23 90 -127 -86
-127 22 30 -5 -33 1 -52 -25
-40 -58 2 22 -127 63 76 -16
127 -8 -10 -6 -88 -9 1 9
23 -14 1 -24 127 52 51 -33
0 -99 5 -38 5 -127 80 -51
-17 -127 25 -14 -3 -56 32 -8
-99 36 -27 15 -15 -28 127 97
-13 43 15 5 0 41 -103 -127
127 -31 -2 8 -81 3 -45 -22
-10 -27 64 -16 18 -114 127 68
00000000: 8100 fe4a dc29 19e2 1d49 2f15 10d6 687f
00000010: d8ff 02ff 81f3 0c03 64fd f385 8111 23ee
00000020: 812d f0f6 47f3 2d15 9ae5 15f7 8108 0955
00000030: f081 19ef 0d03 fd21 befc 0366 7fdf dd06
00000040: 4a04 0281 00e9 d3de fb81 f8fb 0356 cc56
00000050: a2fb ff16 8147 3ff0 730a 280d c5d4 df81
00000060: 000e 2af9 0ab2 7f3f 42e5 f9f2 7d7f 77d5
00000070: 7f39 f313 9bed e5ed f181 10f3 0404 0524
00000080: ccf1 04ff 8100 0e04 e667 8d03 0c81 6ca9
00000090: 7fe4 d50e c41a 0b66 7fce ebfa 2f00 2007
000000a0: 7f18 ef79 fe23 02c7 0820 c305 e95a 81aa
000000b0: 8116 1efb df01 cce7 d8c6 0216 813f 4cf0
000000c0: 7ff8 f6fa a8f7 0109 17f2 01e8 7f34 33df
000000d0: 009d 05da 0581 50cd ef81 19f2 fdc8 20f8
000000e0: 9d24 e50f f1e4 7f61 f32b 0f05 0029 9981
000000f0: 7fe1 fe08 af03 d3ea f6e5 40f0 128e 7f44

sequential/model/block_3_project/Conv2D;StatefulPartitionedCall/sequential/model/block_3_project/Conv2D i1 [16, 1, 1, 48]
-16 -3 -23 9 24 -2 2 105
-51 16 42 -6 17 -16 -13 14
15 -13 -8 -4 64 -7 21 127
-16 87 -5 -14 26 -16 25 -25
-17 52 20 -48 16 48 18 -12
-108 -26 20 43 36 27 -125 -50
-37 -12 21 14 -33 11 1 56
-55 -34 6 -44 -22 -18 0 -3
-25 119 -10 18 8 8 -28 -16
25 -43 17 24 -26 -86 -38 21
-21 -5 32 -2 -4 -41 2 17
-19 -31 127 12 10 -1 23 -12
-21 -7 -13 -36 -2 -65 5 -21
1 13 16 26 15 15 -13 8
-4 -20 -25 -13 -4 -1 -1 -127
-13 74 -15 4 -1 -20 -3 -6
-7 54 11 -1 22 11 26 1
-40 3 -19 -6 -1 -10 15 8
-7 32 2 -30 -1 0 2 -4
-19 -3 0 38 -127 6 -5 -2
1 5 -18 -2 -30 8 6 16
-7 -11 3 24 -9 18 4 17
4 1 17 19 -10 26 41 4
10 6 23 -29 8 -5 4 19
36 -32 9 11 20 28 23 -24
-30 3 -12 -19 1 12 1 16
21 -8 -79 3 -5 11 14 72
1 -27 6 48 9 -74 19 7
13 -35 32 -127 12 36 -2 18
-19 18 8 -23 -11 -20 9 6
30 1 -20 58 0 -7 7 24
2 -4 40 8 3 52 2 1
00000000: f0fd e909 18fe 0269 cd10 2afa 11f0 f30e
00000010: 0ff3 f8fc 40f9 157f f057 fbf2 1af0 19e7
00000020: ef34 14d0 1030 12f4 94e6 142b 241b 83ce
00000030: dbf4 150e df0b 0138 c9de 06d4 eaee 00fd
00000040: e777 f612 0808 e4f0 19d5 1118 e6aa da15
00000050: ebfb 20fe fcd7 0211 ede1 7f0c 0aff 17f4
00000060: ebf9 f3dc febf 05eb 010d 101a 0f0f f308
00000070: fcec e7f3 fcff ff81 f34a f104 ffec fdfa
00000080: f936 0bff 160b 1a01 d803 edfa fff6 0f08
00000090: f920 02e2 ff00 02fc edfd 0026 8106 fbfe
000000a0: 0105 eefe e208 0610 f9f5 0318 f712 0411
000000b0: 0401 1113 f61a 2904 0a06 17e3 08fb 0413
000000c0: 24e0 090b 141c 17e8 e203 f4ed 010c 0110
000000d0: 15f8 b103 fb0b 0e48 01e5 0630 09b6 1307
000000e0: 0ddd 2081 0c24 fe12 ed12 08e9 f5ec 0906
000000f0: 1e01 ec3a 00f9 0718 02fc 2808 0334 0201

sequential/model/block_4_expand/Conv2D;StatefulPartitionedCall/sequential/model/block_4_expand/Conv2D i1 [96, 1, 1, 16]
46 -22 127 108 71 -29 27 -29
121 -18 -57 -74 33 88 -41 -82
34 79 -8 -3 92 -4 11 29
56 75 -34 127 1 -26 97 -94
23 -57 1 -2 -60 34 -50 89
-79 -91 10 80 -9 -127 84 -93
127 125 -4 37 -125 -14 -66 -27
1 -2 110 -70 -58 96 -47 -37
4 -4 20 10 -26 30 -17 43
-65 -37 -4 -3 -5 -127 25 2
127 -49 -25 3 -10 -120 -28 16
-5 10 -126 -6 23 -7 -6 29
-127 -72 -12 97 -53 1 -46 29
-121 -76 -72 -33 27 59 -8 102
-18 14 -76 48 40 -127 -24 41
11 -30 15 -5 -1 18 -41 15
33 -50 -10 -11 10 28 -59 -63
-12 12 -71 9 -127 0 1 24
25 -54 61 127 3 24 -6 -75
126 -91 1 -21 -6 50 -70 17
-127 -73 -9 -50 117 49 47 73
120 -76 -90 33 100 -116 -121 83
41 -15 -127 19 52 24 -21 41
-12 -33 -12 -7 -2 21 -42 4
106 -56 9 3 -5 -62 -61 -26
40 -2 -127 -20 -53 -15 0 59
38 -76 24 -61 100 11 -104 -127
45 -71 21 14 15 -16 26 0
-55 29 -93 -48 90 -127 62 -61
61 48 -7 -99 24 119 -19 27
26 -6 61 40 50 -44 -38 -13
20 -61 -67 -8 -127 -52 -14 52
00000000: 2eea 7f6c 47e3 1be3 79ee c7b6 2158 d7ae
00000010: 224f f8fd 5cfc 0b1d 384b de7f 01e6 61a2
00000020: 17c7 01fe c422 ce59 b1a5 0a50 f781 54a3
00000030: 7f7d fc25 83f2 bee5 01fe 6eba c660 d1db
00000040: 04fc 140a e61e ef2b bfdb fcfd fb81 1902
00000050: 7fcf e703 f688 e410 fb0a 82fa 17f9 fa1d
00000060: 81b8 f461 cb01 d21d 87b4 b8df 1b3b f866
00000070: ee0e b430 2881 e829 0be2 0ffb ff12 d70f
00000080: 21ce f6f5 0a1c c5c1 f40c b909 8100 0118
00000090: 19ca 3d7f 0318 fab5 7ea5 01eb fa32 ba11
000000a0: 81b7 f7ce 7531 2f49 78b4 a621 648c 8753
000000b0: 29f1 8113 3418 eb29 f4df f4f9 fe15 d604
000000c0: 6ac8 0903 fbc2 c3e6 28fe 81ec cbf1 003b
000000d0: 26b4 18c3 640b 9881 2db9 150e 0ff0 1a00
000000e0: c91d a3d0 5a81 3ec3 3d30 f99d 1877 ed1b
000000f0: 1afa 3d28 32d4 daf3 14c3 bdf8 81cc f234

sequential/model/block_4_project/Conv2D;StatefulPartitionedCall/sequential/model/block_4_project/Conv2D i1 [16, 1, 1, 96]
-1 18 -10 19 45 69 -36 -29
45 3 13 8 -10 13 23 68
1 -7 -8 -7 98 -56 8 -16
-23 -36 -42 -95 -6 -5 46 48
118 -5 4 -2 9 -20 -20 9
-32 13 19 -31 3 -30 -13 25
-13 20 2 -9 -34 -13 7 -4
38 23 -21 -25 -60 30 -10 -10
13 9 56 1 12 4 1 -27
-62 -4 -1 3 -7 -89 7 -18
38 -19 -58 -43 29 -13 6 25
-7 3 19 -32 23 20 -12 127
78 -97 44 82 -11 -66 -16 -44
-25 -92 -7 26 10 -62 -35 -54
-84 -5 24 22 -36 -109 -39 27
127 -65 -74 16 -28 94 -16 51
11 13 -43 24 -21 -11 50 -26
1 -78 76 -34 -56 16 56 -5
35 22 0 -71 64 -78 40 -22
22 28 -17 -107 37 -67 20 -51
4 -84 34 46 41 51 -39 1
-97 39 -21 66 37 96 18 -22
42 6 -75 35 -83 64 -1 63
-43 12 20 10 7 -45 40 1
28 17 14 -29 5 -1 -10 37
65 -16 14 71 -1 10 48 6
-12 -14 14 -8 -20 -65 6 -58
-1 -15 -28 25 -8 21 127 -61
18 -73 -25 61 17 126 -44 -24
1 -18 -5 36 -46 -50 -63 25
29 31 -33 -34 26 -1 -4 -31
-26 2 -4 28 3 5 77 93
00000000: ff12 f613 2d45 dce3 2d03 0d08 f60d 1744
00000010: 01f9 f8f9 62c8 08f0 e9dc d6a1 fafb 2e30
00000020: 76fb 04fe 09ec ec09 e00d 13e1 03e2 f319
00000030: f314 02f7 def3 07fc 2617 ebe7 c41e f6f6
00000040: 0d09 3801 0c04 01e5 c2fc ff03 f9a7 07ee
00000050: 26ed c6d5 1df3 0619 f903 13e0 1714 f47f
00000060: 4e9f 2c52 f5be f0d4 e7a4 f91a 0ac2 ddca
00000070: acfb 1816 dc93 d91b 7fbf b610 e45e f033
00000080: 0b0d d518 ebf5 32e6 01b2 4cde c810 38fb
00000090: 2316 00b9 40b2 28ea 161c ef95 25bd 14cd
000000a0: 04ac 222e 2933 d901 9f27 eb42 2560 12ea
000000b0: 2a06 b523 ad40 ff3f d50c 140a 07d3 2801
000000c0: 1c11 0ee3 05ff f625 41f0 0e47 ff0a 3006
000000d0: f4f2 0ef8 ecbf 06c6 fff1 e419 f815 7fc3
000000e0: 12b7 e73d 117e d4e8 01ee fb24 d2ce c119
000000f0: 1d1f dfde 1aff fce1 e602 fc1c 0305 4d5d

sequential/model/block_5_expand/Conv2D;StatefulPartitionedCall/sequential/model/block_5_expand/Conv2D i1 [96, 1, 1, 16]
0 65 -25 78 26 32 12 -14
31 35 -59 103 5 -127 44 -126
20 51 -10 -22 26 -29 127 -107
1 87 -13 -18 5 -48 33 12
-127 34 -36 -23 0 -7 55 93
-32 55 109 -18 -65 15 32 -51
-70 65 50 64 -51 58 73 127
11 69 -120 6 42 -73 -88 -61
13 -1 35 65 -19 65 -3 46
7 -16 -2 -4 23 -4 -127 -23
-7 -30 58 -22 8 -24 -5 27
-69 101 -30 -127 -15 24 -55 -25
15 0 33 -11 41 59 -67 -71
-8 -2 46 -14 127 -24 -16 -36
20 12 127 -13 -22 -38 7 -8
-79 27 -82 -46 11 -7 34 -14
21 30 78 67 -57 85 21 47
43 5 12 -93 -38 6 -127 -79
32 -119 57 47 12 -33 1 21
127 2 81 10 -28 7 -109 -32
-40 -95 5 -19 -102 9 -14 59
100 127 46 -28 -29 64 83 -7
45 -18 8 -95 15 -28 -110 -127
-54 42 -10 -30 31 -24 41 -64
-15 5 10 -40 -35 -39 -96 -17
-46 -74 -25 16 25 127 89 46
-35 -100 -68 30 -10 -67 0 -24
52 12 -13 -13 23 18 127 31
1 -59 57 30 24 33 10 127
21 55 12 -40 13 44 -61 119
21 -33 2 61 16 -3 95 0
5 -127 14 -35 0 -21 -7 -36
00000000: 0041 e74e 1a20 0cf2 1f23 c567 0581 2c82
00000010: 1433 f6ea 1ae3 7f95 0157 f3ee 05d0 210c
00000020: 8122 dce9 00f9 375d e037 6dee bf0f 20cd
00000030: ba41 3240 cd3a 497f 0b45 8806 2ab7 a8c3
00000040: 0dff 2341 ed41 fd2e 07f0 fefc 17fc 81e9
00000050: f9e2 3aea 08e8 fb1b bb65 e281 f118 c9e7
00000060: 0f00 21f5 293b bdb9 f8fe 2ef2 7fe8 f0dc
00000070: 140c 7ff3 eada 07f8 b11b aed2 0bf9 22f2
00000080: 151e 4e43 c755 152f 2b05 0ca3 da06 81b1
00000090: 2089 392f 0cdf 0115 7f02 510a e407 93e0
000000a0: d8a1 05ed 9a09 f23b 647f 2ee4 e340 53f9
000000b0: 2dee 08a1 0fe4 9281 ca2a f6e2 1fe8 29c0
000000c0: f105 0ad8 ddd9 a0ef d2b6 e710 197f 592e
000000d0: dd9c bc1e f6bd 00e8 340c f3f3 1712 7f1f
000000e0: 01c5 391e 1821 0a7f 1537 0cd8 0d2c c377
000000f0: 15df 023d 10fd 5f00 0581 0edd 00eb f9dc

sequential/model/block_5_project/Conv2D;StatefulPartitionedCall/sequential/model/block_5_project/Conv2D i1 [16, 1, 1, 96]
-17 -13 3 -32 17 -7 -39 0
16 4 -11 5 -7 -9 -26 6
-2 4 -3 -2 10 -32 5 5
4 11 4 127 32 -36 41 -10
-1 6 6 2 -9 13 -38 -4
-11 7 0 36 6 14 14 5
24 1 -7 9 17 -19 -11 81
5 8 -28 -35 -5 24 0 -25
-40 -65 -21 37 7 10 17 -15
-7 -32 -5 -23 -26 18 2 6
-10 -27 25 21 -3 -10 -8 -92
3 -15 6 -4 46 -32 -35 -12
35 -69 -73 -57 127 -14 62 38
-21 -89 -56 -17 4 -5 -60 38
-68 6 46 42 19 38 -16 -55
14 -8 -11 -69 33 -19 -60 37
-22 31 5 1 8 -8 2 21
-30 36 -41 -21 -39 90 10 8
26 -74 13 -40 -20 39 51 12
-56 -22 -34 -35 24 -19 0 -43
-85 104 -27 -21 -5 -26 -20 17
53 -105 -28 2 34 -50 44 7
6 -27 27 1 -51 33 -17 26
29 -39 -2 9 27 11 33 97
2 56 -85 -11 89 79 31 72
-5 -102 -3 -17 -4 0 27 24
8 -17 -47 65 20 -2 73 19
49 25 -5 -38 34 -10 45 -55
32 37 -26 34 -127 -83 26 30
2 -46 16 -19 20 -33 1 66
-29 18 -26 -10 87 -6 -8 53
32 10 31 4 23 22 31 -27
00000000: eff3 03e0 11f9 d900 1004 f505 f9f7 e606
00000010: fe04 fdfe 0ae0 0505 040b 047f 20dc 29f6
00000020: ff06 0602 f70d dafc f507 0024 060e 0e05
00000030: 1801 f909 11ed f551 0508 e4dd fb18 00e7
00000040: d8bf eb25 070a 11f1 f9e0 fbe9 e612 0206
00000050: f6e5 1915 fdf6 f8a4 03f1 06fc 2ee0 ddf4
00000060: 23bb b7c7 7ff2 3e26 eba7 c8ef 04fb c426
00000070: bc06 2e2a 1326 f0c9 0ef8 f5bb 21ed c425
00000080: ea1f 0501 08f8 0215 e224 d7eb d95a 0a08
00000090: 1ab6 0dd8 ec27 330c c8ea dedd 18ed 00d5
000000a0: ab68 e5eb fbe6 ec11 3597 e402 22ce 2c07
000000b0: 06e5 1b01 cd21 ef1a 1dd9 fe09 1b0b 2161
000000c0: 0238 abf5 594f 1f48 fb9a fdef fc00 1b18
000000d0: 08ef d141 14fe 4913 3119 fbda 22f6 2dc9
000000e0: 2025 e622 81ad 1a1e 02d2 10ed 14df 0142
000000f0: e312 e6f6 57fa f835 200a 1f04 1716 1fe5

sequential/model/block_6_expand/Conv2D;StatefulPartitionedCall/sequential/model/block_6_expand/Conv2D i1 [96, 1, 1, 16]
-29 91 -2 -127 -44 -31 -32 -68
-19 16 3 77 20 -58 -7 50
-37 22 -64 -4 -30 -29 28 -85
62 54 -60 19 3 3 42 -127
1 10 -37 38 44 19 -56 -63
127 -34 -3 10 -16 96 -71 23
47 -67 5 -112 8 -29 -8 -2
114 -3 75 44 -8 46 20 127
-81 50 14 41 7 -19 -2 41
3 9 21 -22 -127 -13 -16 28
3 67 117 5 22 80 -78 77
-55 73 -25 -33 36 -46 -127 21
36 -58 121 -127 40 1 -43 99
-76 -102 55 -35 4 91 -21 82
37 117 -27 -59 94 13 4 -50
127 96 -28 20 28 -23 63 46
12 -85 10 -85 23 -56 18 -73
25 60 72 -8 17 127 79 59
8 -32 -5 127 42 -8 40 -61
-64 111 31 -21 -6 -64 -7 -8
-8 23 -46 -127 10 0 -10 36
32 -34 18 -27 -16 -43 -2 29
2 17 23 -19 81 -30 85 -58
-84 38 -2 30 0 127 -69 -31
69 -18 -125 -15 31 -80 27 23
16 58 -78 -48 -39 127 -2 32
-17 7 -25 10 4 -127 -3 18
4 -12 7 -1 12 -14 10 11
25 -26 95 -32 62 6 -127 -93
-19 -44 28 18 8 -61 -18 -32
-85 21 -18 -50 -1 2 127 58
-37 45 77 -28 11 86 64 2
00000000: e35b fe81 d4e1 e0bc ed10 034d 14c6 f932
00000010: db16 c0fc e2e3 1cab 3e36 c413 0303 2a81
00000020: 010a db26 2c13 c8c1 7fde fd0a f060 b917
00000030: 2fbd 0590 08e3 f8fe 72fd 4b2c f82e 147f
00000040: af32 0e29 07ed fe29 0309 15ea 81f3 f01c
00000050: 0343 7505 1650 b24d c949 e7df 24d2 8115
00000060: 24c6 7981 2801 d563 b49a 37dd 045b eb52
00000070: 2575 e5c5 5e0d 04ce 7f60 e414 1ce9 3f2e
00000080: 0cab 0aab 17c8 12b7 193c 48f8 117f 4f3b
00000090: 08e0 fb7f 2af8 28c3 c06f 1feb fac0 f9f8
000000a0: f817 d281 0a00 f624 20de 12e5 f0d5 fe1d
000000b0: 0211 17ed 51e2 55c6 ac26 fe1e 007f bbe1
000000c0: 45ee 83f1 1fb0 1b17 103a b2d0 d97f fe20
000000d0: ef07 e70a 0481 fd12 04f4 07ff 0cf2 0a0b
000000e0: 19e6 5fe0 3e06 81a3 edd4 1c12 08c3 eee0
000000f0: ab15 eece ff02 7f3a db2d 4de4 0b56 4002

sequential/model/block_6_project/Conv2D;StatefulPartitionedCall/sequential/model/block_6_project/Conv2D i1 [24, 1, 1, 96]
45 45 -48 -25 6 -39 39 -6
9 30 -17 -10 19 -21 -71 -19
-10 1 -59 25 3 32 46 6
44 59 66 -97 -73 -64 19 -57
-127 -59 -80 -59 44 -36 -21 -50
-38 -49 -6 -62 36 19 -91 57
64 66 -29 96 37 50 -16 -106
100 88 -58 -47 20 78 -121 -3
-53 25 36 52 -28 -5 -12 32
-4 -51 3 -21 55 57 25 41
5 10 -12 27 15 -50 -53 -48
-17 30 -8 78 2 -28 -78 -4
-32 -12 5 -23 -30 35 -11 13
57 61 82 -20 -7 20 50 -20
-25 -1 40 9 78 -26 67 62
-36 5 -1 43 3 -2 -31 48
17 2 -40 -90 24 36 21 -70
49 9 -13 -27 -17 -22 -30 50
-22 -25 11 -24 -65 -4 -52 -3
38 -47 -60 -11 -24 57 15 1
8 -2 -24 16 -4 -17 -9 14
-7 -17 -51 127 66 66 17 -31
16 -12 6 78 57 -41 1 -6
-11 -20 -53 -67 19 39 -5 5
5 8 -5 -18 15 15 -3 -18
2 -58 4 -6 11 9 -3 -8
-31 -40 -4 2 -7 -2 -10 -6
7 28 -17 0 10 8 -34 0
-22 -12 21 -33 3 1 22 -46
-12 -7 -3 1 -4 1 18 11
14 -10 -5 1 0 13 -18 14
16 4 -17 63 -6 -38 -5 -3
00000000: 2d2d d0e7 06d9 27fa 091e eff6 13eb b9ed
00000010: f601 c519 0320 2e06 2c3b 429f b7c0 13c7
00000020: 81c5 b0c5 2cdc ebce dacf fac2 2413 a539
00000030: 4042 e360 2532 f096 6458 c6d1 144e 87fd
00000040: cb19 2434 e4fb f420 fccd 03eb 3739 1929
00000050: 050a f41b 0fce cbd0 ef1e f84e 02e4 b2fc
00000060: e0f4 05e9 e223 f50d 393d 52ec f914 32ec
00000070: e7ff 2809 4ee6 433e dc05 ff2b 03fe e130
00000080: 1102 d8a6 1824 15ba 3109 f3e5 efea e232
00000090: eae7 0be8 bffc ccfd 26d1 c4f5 e839 0f01
000000a0: 08fe e810 fcef f70e f9ef cd7f 4242 11e1
000000b0: 10f4 064e 39d7 01fa f5ec cbbd 1327 fb05
000000c0: 0508 fbee 0f0f fdee 02c6 04fa 0b09 fdf8
000000d0: e1d8 fc02 f9fe f6fa 071c ef00 0a08 de00
000000e0: eaf4 15df 0301 16d2 f4f9 fd01 fc01 120b
000000f0: 0ef6 fb01 000d ee0e 1004 ef3f fada fbfd

sequential/model/block_7_expand/Conv2D;StatefulPartitionedCall/sequential/model/block_7_expand/Conv2D i1 [144, 1, 1, 24]
2 70 -62 -19 94 43 0 57
-9 -30 31 127 19 3 35 50
-80 16 56 -46 -29 8 -31 -29
-7 26 -9 9 9 -45 37 5
-1 -127 7 4 -4 40 -47 -25
-16 -7 18 -10 10 -9 -102 8
36 -58 -63 -31 30 -98 39 30
102 -29 3 43 -45 97 -23 14
17 43 -118 81 24 -105 -6 -127
38 -70 -4 97 -58 -20 -92 127
41 -26 -7 16 7 14 23 -5
-3 -62 16 4 -12 -24 -12 13
38 52 91 -45 65 38 98 66
81 -10 38 13 127 -102 37 -40
40 14 32 4 41 -65 -53 51
-8 -11 127 -25 -111 -8 53 -36
65 -49 -27 -44 -37 21 88 71
-37 31 26 55 -31 13 -31 -4
14 -35 -41 -4 65 16 127 -114
-37 -65 -21 -16 -31 52 -4 57
12 103 -10 17 88 -30 21 -39
-91 -23 -80 -29 48 5 20 5
68 114 -30 -110 110 53 -104 53
-127 48 -92 -99 21 -27 101 7
-10 -123 -100 15 95 -7 79 -3
72 47 -23 70 -8 127 -88 46
16 -61 -127 -23 -7 -83 72 38
26 -19 -19 127 50 -7 5 -34
47 17 -62 -25 16 -53 -34 13
22 48 -10 21 -60 -24 38 -4
25 -20 -95 -33 17 -127 7 23
39 44 16 -114 -27 6 -6 -44
00000000: 0246 c2ed 5e2b 0039 f7e2 1f7f 1303 2332
00000010: b010 38d2 e308 e1e3 f91a f709 09d3 2505
00000020: ff81 0704 fc28 d1e7 f0f9 12f6 0af7 9a08
00000030: 24c6 c1e1 1e9e 271e 66e3 032b d361 e90e
00000040: 112b 8a51 1897 fa81 26ba fc61 c6ec a47f
00000050: 29e6 f910 070e 17fb fdc2 1004 f4e8 f40d
00000060: 2634 5bd3 4126 6242 51f6 260d 7f9a 25d8
00000070: 280e 2004 29bf cb33 f8f5 7fe7 91f8 35dc
00000080: 41cf e5d4 db15 5847 db1f 1a37 e10d e1fc
00000090: 0edd d7fc 4110 7f8e dbbf ebf0 e134 fc39
000000a0: 0c67 f611 58e2 15d9 a5e9 b0e3 3005 1405
000000b0: 4472 e292 6e35 9835 8130 a49d 15e5 6507
000000c0: f685 9c0f 5ff9 4ffd 482f e946 f87f a82e
000000d0: 10c3 81e9 f9ad 4826 1aed ed7f 32f9 05de
000000e0: 2f11 c2e7 10cb de0d 1630 f615 c4e8 26fc
000000f0: 19ec a1df 1181 0717 272c 108e e506 fad4

sequential/model/block_7_project/Conv2D;StatefulPartitionedCall/sequential/model/block_7_project/Conv2D i1 [24, 1, 1, 144]
-5 36 29 -16 3 8 -23 55
0 -7 -24 27 -18 -18 19 25
0 3 19 35 -15 1 14 -16
35 13 -37 39 -11 -25 -66 14
1 29 28 -4 75 -29 -41 -3
13 1 -10 -65 -1 -3 -2 0
-41 26 -5 69 -35 17 25 -53
11 63 55 -4 37 -28 18 33
2 8 -37 -4 12 25 -18 21
-14 25 -46 -11 31 -5 -23 -16
6 -5 5 8 6 -5 -6 -42
-127 -42 51 70 -8 -32 -19 26
1 3 -27 31 -2 35 -8 -8
-10 -40 -52 34 -43 1 -15 4
16 -6 1 15 24 -21 -8 -14
-13 -38 1 -17 -2 -20 -29 25
-4 -1 33 -2 34 -36 -12 11
21 3 35 -22 21 -4 -5 23
-11 -33 93 17 -6 -24 -8 17
16 1 119 4 26 -97 23 -19
-14 3 -15 4 -20 -11 -17 -9
-10 46 -6 1 -16 127 -33 8
-1 5 -30 54 24 -20 -16 96
-5 -4 90 -22 -31 -9 77 14
96 -13 81 -7 23 -17 16 -4
-4 29 -2 -27 9 -19 -6 -27
16 -2 -3 -13 9 -19 33 -12
-17 44 -5 66 -26 11 5 -16
-22 3 -11 36 -61 -20 13 29
-4 -16 -9 14 76 -23 -28 -11
-31 11 -18 -17 -3 -18 75 95
0 -15 4 -34 14 -16 -35 -11
00000000: fb24 1df0 0308 e937 00f9 e81b eeee 1319
00000010: 0003 1323 f101 0ef0 230d db27 f5e7 be0e
00000020: 011d 1cfc 4be3 d7fd 0d01 f6bf fffd fe00
00000030: d71a fb45 dd11 19cb 0b3f 37fc 25e4 1221
00000040: 0208 dbfc 0c19 ee15 f219 d2f5 1ffb e9f0
00000050: 06fb 0508 06fb fad6 81d6 3346 f8e0 ed1a
00000060: 0103 e51f fe23 f8f8 f6d8 cc22 d501 f104
00000070: 10fa 010f 18eb f8f2 f3da 01ef feec e319
00000080: fcff 21fe 22dc f40b 1503 23ea 15fc fb17
00000090: f5df 5d11 fae8 f811 1001 7704 1a9f 17ed
000000a0: f203 f104 ecf5 eff7 f62e fa01 f07f df08
000000b0: ff05 e236 18ec f060 fbfc 5aea e1f7 4d0e
000000c0: 60f3 51f9 17ef 10fc fc1d fee5 09ed fae5
000000d0: 10fe fdf3 09ed 21f4 ef2c fb42 e60b 05f0
000000e0: ea03 f524 c3ec 0d1d fcf0 f70e 4ce9 e4f5
000000f0: e10b eeef fdee 4b5f 00f1 04de 0ef0 ddf5

sequential/model/block_8_expand/Conv2D;StatefulPartitionedCall/sequential/model/block_8_expand/Conv2D i1 [144, 1, 1, 24]
-54 22 -31 32 20 -38 10 -33
45 -6 -17 97 -69 34 -76 -23
-55 -40 11 -84 16 -127 51 17
17 -54 -14 -5 69 -29 -35 16
-38 2 -10 127 5 -62 -71 -31
13 -3 -7 -55 38 7 -46 -19
39 0 4 -50 -123 125 -63 -42
16 4 68 127 -93 7 67 -6
-6 99 -8 26 -20 -2 72 8
-9 -10 -14 122 -6 -47 -26 127
43 7 -48 20 -11 15 51 5
-34 -63 -5 44 104 117 7 3
30 -48 -1 -9 10 41 47 87
-83 10 45 101 34 127 82 -7
63 23 9 -54 -68 19 -18 12
34 -5 -34 -34 -32 -26 28 -50
-79 16 -41 45 -28 86 -68 -8
-32 -51 -27 21 -127 -27 34 -32
29 -1 -127 -55 53 -94 41 54
115 4 63 3 -85 90 -26 -79
-17 51 -72 43 -16 -93 -57 -46
10 -6 6 2 18 -4 6 -9
-26 -15 -14 21 -2 8 -16 -9
39 -10 127 -3 -2 16 -23 18
-2 29 -117 -12 19 -33 -48 -42
-22 -15 60 127 79 -35 116 50
-9 -24 26 13 -33 1 38 36
-40 39 -60 1 83 103 7 34
44 -4 48 127 -77 40 -51 -42
88 -22 45 -28 -6 -12 43 -44
73 58 43 -45 113 20 39 54
83 -19 -4 21 127 -55 97 6
00000000: ca16 e120 14da 0adf 2dfa ef61 bb22 b4e9
00000010: c9d8 0bac 1081 3311 11ca f2fb 45e3 dd10
00000020: da02 f67f 05c2 b9e1 0dfd f9c9 2607 d2ed
00000030: 2700 04ce 857d c1d6 1004 447f a307 43fa
00000040: fa63 f81a ecfe 4808 f7f6 f27a fad1 e67f
00000050: 2b07 d014 f50f 3305 dec1 fb2c 6875 0703
00000060: 1ed0 fff7 0a29 2f57 ad0a 2d65 227f 52f9
00000070: 3f17 09ca bc13 ee0c 22fb dede e0e6 1cce
00000080: b110 d72d e456 bcf8 e0cd e515 81e5 22e0
00000090: 1dff 81c9 35a2 2936 7304 3f03 ab5a e6b1
000000a0: ef33 b82b f0a3 c7d2 0afa 0602 12fc 06f7
000000b0: e6f1 f215 fe08 f0f7 27f6 7ffd fe10 e912
000000c0: fe1d 8bf4 13df d0d6 eaf1 3c7f 4fdd 7432
000000d0: f7e8 1a0d df01 2624 d827 c401 5367 0722
000000e0: 2cfc 307f b328 cdd6 58ea 2de4 faf4 2bd4
000000f0: 493a 2bd3 7114 2736 53ed fc15 7fc9 6106

sequential/model/block_8_project/Conv2D;StatefulPartitionedCall/sequential/model/block_8_project/Conv2D i1 [24, 1, 1, 144]
34 12 -19 5 -20 -5 38 72
-14 -7 19 8 8 -15 32 -1
24 -2 6 -15 -16 38 43 -22
26 10 21 -16 -1 -22 16 38
35 7 -23 -1 -25 -11 -26 3
54 -6 -52 2 52 29 22 5
15 73 27 3 27 -78 -46 -27
-20 49 8 -6 -7 -23 20 16
42 -33 85 -8 -48 18 8 7
48 19 -72 -22 -13 6 -4 -4
4 0 32 -13 -8 31 -9 -29
-10 12 10 -21 2 39 -24 28
-8 -17 -9 5 -25 -21 -21 5
-31 37 -24 6 -25 127 35 9
20 23 -47 5 23 -48 1 -21
11 18 16 -23 13 -20 13 -3
9 10 -11 -2 -25 -14 23 38
-21 3 0 -16 0 14 -38 -26
-6 79 15 100 -7 -12 -33 -18
67 8 -1 -9 -3 -46 -19 0
-41 -5 -25 -11 -1 64 10 7
-7 71 -24 -36 28 34 -3 -27
79 -37 -40 -10 16 4 66 -55
-1 0 -12 -39 35 -12 19 -27
29 17 -17 -2 -1 -5 7 12
100 83 17 -2 8 -16 5 -13
-22 -40 105 29 -1 -3 -18 102
22 12 10 -6 14 -18 9 -27
-42 -8 77 65 -21 -25 -31 -14
-21 14 29 -17 -59 -15 -10 -16
-9 -20 -66 -9 48 -22 0 4
58 45 -42 -17 7 -13 -34 -58
00000000: 220c ed05 ecfb 2648 f2f9 1308 08f1 20ff
00000010: 18fe 06f1 f026 2bea 1a0a 15f0 ffea 1026
00000020: 2307 e9ff e7f5 e603 36fa cc02 341d 1605
00000030: 0f49 1b03 1bb2 d2e5 ec31 08fa f9e9 1410
00000040: 2adf 55f8 d012 0807 3013 b8ea f306 fcfc
00000050: 0400 20f3 f81f f7e3 f60c 0aeb 0227 e81c
00000060: f8ef f705 e7eb eb05 e125 e806 e77f 2309
00000070: 1417 d105 17d0 01eb 0b12 10e9 0dec 0dfd
00000080: 090a f5fe e7f2 1726 eb03 00f0 000e dae6
00000090: fa4f 0f64 f9f4 dfee 4308 fff7 fdd2 ed00
000000a0: d7fb e7f5 ff40 0a07 f947 e8dc 1c22 fde5
000000b0: 4fdb d8f6 1004 42c9 ff00 f4d9 23f4 13e5
000000c0: 1d11 effe fffb 070c 6453 11fe 08f0 05f3
000000d0: ead8 691d fffd ee66 160c 0afa 0eee 09e5
000000e0: d6f8 4d41 ebe7 e1f2 eb0e 1def c5f1 f6f0
000000f0: f7ec bef7 30ea 0004 3a2d d6ef 07f3 dec6

sequential/model/block_9_expand/Conv2D;StatefulPartitionedCall/sequential/model/block_9_expand/Conv2D i1 [144, 1, 1, 24]
11 28 -65 -80 -30 10 26 24
-72 -29 -56 6 10 41 -79 -20
55 -91 27 -11 127 -36 -50 27
-65 34 -51 0 64 -66 -48 23
83 36 81 -61 1 -34 81 -17
-16 51 -62 19 14 -102 -127 24
-5 28 -41 10 11 -49 -13 -92
21 127 -83 -41 7 -31 -41 -88
-38 -47 -17 -10 41 -63 -16 24
-24 -76 45 113 -29 31 -11 47
-45 9 -56 -28 -22 -18 -17 -59
-31 127 34 -29 -66 -36 -51 21
100 65 75 -12 15 127 -21 -27
-20 -27 36 108 25 17 -10 -11
-79 -73 -1 -42 -19 -39 31 80
6 1 -33 16 25 -26 15 6
-23 -13 -66 31 70 25 -36 -30
79 4 19 18 44 -27 -127 20
76 65 -10 78 61 -7 10 -12
22 -84 -63 -47 -7 -5 -47 -17
-42 64 -99 -70 -75 -8 -127 20
57 24 -115 -9 -20 114 2 68
-67 100 18 71 -28 -74 127 -9
-42 7 -46 -12 -35 -40 96 -44
81 24 -33 127 26 4 12 -10
-19 -32 -93 2 22 10 -92 -44
52 36 -8 -27 -22 -33 -15 43
-51 12 -9 -127 -41 -20 17 20
-39 20 37 12 -37 33 48 16
-28 -91 61 0 95 -11 -39 -6
82 -35 24 -7 -2 -17 48 50
34 53 1 14 30 63 1 -62
00000000: 0b1c bfb0 e20a 1a18 b8e3 c806 0a29 b1ec
00000010: 37a5 1bf5 7fdc ce1b bf22 cd00 40be d017
00000020: 5324 51c3 01de 51ef f033 c213 0e9a 8118
00000030: fb1c d70a 0bcf f3a4 157f add7 07e1 d7a8
00000040: dad1 eff6 29c1 f018 e8b4 2d71 e31f f52f
00000050: d309 c8e4 eaee efc5 e17f 22e3 bedc cd15
00000060: 6441 4bf4 0f7f ebe5 ece5 246c 1911 f6f5
00000070: b1b7 ffd6 edd9 1f50 0601 df10 19e6 0f06
00000080: e9f3 be1f 4619 dce2 4f04 1312 2ce5 8114
00000090: 4c41 f64e 3df9 0af4 16ac c1d1 f9fb d1ef
000000a0: d640 9dba b5f8 8114 3918 8df7 ec72 0244
000000b0: bd64 1247 e4b6 7ff7 d607 d2f4 ddd8 60d4
000000c0: 5118 df7f 1a04 0cf6 ede0 a302 160a a4d4
000000d0: 3424 f8e5 eadf f12b cd0c f781 d7ec 1114
000000e0: d914 250c db21 3010 e4a5 3d00 5ff5 d9fa
000000f0: 52dd 18f9 feef 3032 2235 010e 1e3f 01c2

sequential/model/block_9_project/Conv2D;StatefulPartitionedCall/sequential/model/block_9_project/Conv2D i1 [24, 1, 1, 144]
-4 20 -4 22 6 -25 -3 -37
13 54 62 -1 32 -41 -53 29
16 4 31 -12 -35 11 31 44
37 43 22 -56 3 10 -6 -76
-127 -98 35 -111 -37 31 -48 5
-37 61 -47 -33 -41 68 19 22
52 14 -12 -17 16 48 -26 88
-22 23 21 61 -15 1 76 35
15 -21 37 5 90 -12 18 -11
-5 28 -49 -55 -69 33 8 30
17 -39 13 -12 3 -12 9 20
-56 -1 62 -39 -9 2 14 7
-4 -13 -35 -6 49 13 -44 -65
22 -53 -15 -30 15 3 -40 -57
-15 49 29 3 -59 28 -34 -8
4 -14 23 22 29 -48 -5 -64
24 1 7 13 18 33 -88 44
-15 23 29 -43 44 -50 -50 7
-19 9 -7 24 27 -30 -26 2
-18 9 2 28 -4 18 11 -33
-12 -23 21 19 5 -23 30 -10
21 -23 -60 -5 -10 31 -48 -18
28 -3 -13 -1 -24 -35 -14 -1
23 -17 -127 17 1 -37 26 27
-20 25 -58 -39 20 -1 -41 -29
-42 4 22 -3 62 -29 4 7
-19 38 -3 -5 42 27 4 11
-22 37 2 -8 -20 -9 -31 -26
10 -9 -9 -14 -31 -25 -7 14
-35 12 -13 -16 -14 18 44 -35
-5 -35 11 -14 12 31 2 -48
-18 -30 -4 -22 -19 3 -13 -15
00000000: fc14 fc16 06e7 fddb 0d36 3eff 20d7 cb1d
00000010: 1004 1ff4 dd0b 1f2c 252b 16c8 030a fab4
00000020: 819e 2391 db1f d005 db3d d1df d744 1316
00000030: 340e f4ef 1030 e658 ea17 153d f101 4c23
00000040: 0feb 2505 5af4 12f5 fb1c cfc9 bb21 081e
00000050: 11d9 0df4 03f4 0914 c8ff 3ed9 f702 0e07
00000060: fcf3 ddfa 310d d4bf 16cb f1e2 0f03 d8c7
00000070: f131 1d03 c51c def8 04f2 1716 1dd0 fbc0
00000080: 1801 070d 1221 a82c f117 1dd5 2cce ce07
00000090: ed09 f918 1be2 e602 ee09 021c fc12 0bdf
000000a0: f4e9 1513 05e9 1ef6 15e9 c4fb f61f d0ee
000000b0: 1cfd f3ff e8dd f2ff 17ef 8111 01db 1a1b
000000c0: ec19 c6d9 14ff d7e3 d604 16fd 3ee3 0407
000000d0: ed26 fdfb 2a1b 040b ea25 02f8 ecf7 e1e6
000000e0: 0af7 f7f2 e1e7 f90e dd0c f3f0 f212 2cdd
000000f0: fbdd 0bf2 0c1f 02d0 eee2 fcea ed03 f3f1

sequential/model/block_10_expand/Conv2D;StatefulPartitionedCall/sequential/model/block_10_expand/Conv2D i1 [144, 1, 1, 24]
-2 2 -17 21 49 -97 -22 -71
13 -32 -94 48 -47 -47 5 -40
50 -39 5 -127 46 -66 -85 -10
-2 114 -50 -103 -31 -21 -21 49
-83 -127 37 -7 -71 -1 34 -19
-10 -90 29 40 101 -2 79 35
94 108 17 -10 38 -47 79 -43
-3 -50 0 46 43 127 -6 39
14 -54 12 17 -43 19 -72 84
-13 -5 127 -10 -82 14 17 -27
36 -26 17 -34 -14 80 0 -40
22 24 15 27 -8 -9 -16 37
127 -8 -53 -26 -65 -6 47 50
-7 8 2 18 -63 31 -32 -12
-45 88 -5 18 37 -105 -38 -15
53 18 -12 11 -27 50 25 21
-39 -23 114 52 40 127 98 50
46 30 -21 40 -61 47 -49 22
-20 -25 28 21 -27 74 1 16
4 11 8 127 -44 18 -21 -40
35 2 -17 33 14 -35 5 42
-13 62 13 20 10 -98 20 36
-51 -3 -71 53 66 43 -53 8
127 24 -12 61 43 -49 80 33
-4 4 39 3 26 13 127 10
47 -10 32 3 68 -64 29 -1
8 12 3 -1 31 -16 -4 23
24 1 52 37 -11 127 42 -63
-23 -8 -16 42 19 23 -9 34
-17 -39 -2 15 24 -31 -16 27
87 2 1 -20 27 27 -11 3
53 4 -11 127 -6 -72 -8 24
00000000: fe02 ef15 319f eab9 0de0 a230 d1d1 05d8
00000010: 32d9 0581 2ebe abf6 fe72 ce99 e1eb eb31
00000020: ad81 25f9 b9ff 22ed f6a6 1d28 65fe 4f23
00000030: 5e6c 11f6 26d1 4fd5 fdce 002e 2b7f fa27
00000040: 0eca 0c11 d513 b854 f3fb 7ff6 ae0e 11e5
00000050: 24e6 11de f250 00d8 1618 0f1b f8f7 f025
00000060: 7ff8 cbe6 bffa 2f32 f908 0212 c11f e0f4
00000070: d358 fb12 2597 daf1 3512 f40b e532 1915
00000080: d9e9 7234 287f 6232 2e1e eb28 c32f cf16
00000090: ece7 1c15 e54a 0110 040b 087f d412 ebd8
000000a0: 2302 ef21 0edd 052a f33e 0d14 0a9e 1424
000000b0: cdfd b935 422b cb08 7f18 f43d 2bcf 5021
000000c0: fc04 2703 1a0d 7f0a 2ff6 2003 44c0 1dff
000000d0: 080c 03ff 1ff0 fc17 1801 3425 f57f 2ac1
000000e0: e9f8 f02a 1317 f722 efd9 fe0f 18e1 f01b
000000f0: 5702 01ec 1b1b f503 3504 f57f fab8 f818

sequential/model/block_10_project/Conv2D;StatefulPartitionedCall/sequential/model/block_10_project/Conv2D i1 [32, 1, 1, 144]
41 9 -4 48 -16 -38 7 32
15 -15 -21 -16 6 -11 -46 -32
-8 2 -2 20 -20 -25 -18 -4
6 1 10 -23 -3 4 -44 5
6 -21 -6 4 32 16 -20 11
9 6 30 11 13 13 16 38
-12 19 -25 4 -15 -15 1 -18
4 14 8 25 20 26 12 19
-23 67 -33 -31 8 -5 59 9
8 -32 -11 -5 -17 23 -18 1
21 50 16 73 -5 7 -7 12
31 5 6 19 10 32 74 9
0 9 -29 7 -8 26 6 8
0 -1 13 -19 -11 73 57 1
-16 29 -12 -29 12 -1 7 5
30 -21 5 -38 -16 -9 -127 -13
24 -16 17 38 5 43 -11 -13
-8 -30 -14 -11 -3 33 -22 38
29 0 -14 31 -11 -78 9 -15
-28 -48 24 116 -13 -12 15 -41
-6 -21 5 39 -69 28 32 -2
8 -58 24 37 8 -19 61 47
-8 23 -5 -35 43 -41 -55 -23
-7 21 76 34 -5 -3 42 -15
-14 -1 105 -47 -37 1 7 32
45 11 -25 5 -5 -15 82 27
44 -47 28 -2 66 1 -70 125
-2 2 29 65 30 -10 4 37
-13 24 -29 2 66 -41 -2 95
21 -60 41 2 79 29 -46 32
16 52 -88 6 -4 -16 15 71
-10 11 -109 -36 -19 -7 120 -47
00000000: 2909 fc30 f0da 0720 0ff1 ebf0 06f5 d2e0
00000010: f802 fe14 ece7 eefc 0601 0ae9 fd04 d405
00000020: 06eb fa04 2010 ec0b 0906 1e0b 0d0d 1026
00000030: f413 e704 f1f1 01ee 040e 0819 141a 0c13
00000040: e943 dfe1 08fb 3b09 08e0 f5fb ef17 ee01
00000050: 1532 1049 fb07 f90c 1f05 0613 0a20 4a09
00000060: 0009 e307 f81a 0608 00ff 0ded f549 3901
00000070: f01d f4e3 0cff 0705 1eeb 05da f0f7 81f3
00000080: 18f0 1126 052b f5f3 f8e2 f2f5 fd21 ea26
00000090: 1d00 f21f f5b2 09f1 e4d0 1874 f3f4 0fd7
000000a0: faeb 0527 bb1c 20fe 08c6 1825 08ed 3d2f
000000b0: f817 fbdd 2bd7 c9e9 f915 4c22 fbfd 2af1
000000c0: f2ff 69d1 db01 0720 2d0b e705 fbf1 521b
000000d0: 2cd1 1cfe 4201 ba7d fe02 1d41 1ef6 0425
000000e0: f318 e302 42d7 fe5f 15c4 2902 4f1d d220
000000f0: 1034 a806 fcf0 0f47 f60b 93dc edf9 78d1

sequential/model/block_11_expand/Conv2D;StatefulPartitionedCall/sequential/model/block_11_expand/Conv2D i1 [192, 1, 1, 32]
-95 -37 -52 -17 -7 31 3 56
-7 -41 -43 37 -67 -30 14 51
7 52 33 2 -57 -4 -41 127
-90 71 -28 39 -9 90 56 -2
7 -114 -3 -44 -51 -16 7 69
-2 29 11 -12 75 -127 12 -58
-16 -64 -13 -1 33 -40 20 -9
-24 -42 1 -27 -25 22 30 5
-9 31 -11 -14 -24 -55 6 97
-8 25 -79 -7 -84 -74 -28 -7
-19 -127 -42 0 10 -10 -12 100
-57 50 1 -33 -8 -30 -10 -18
-8 19 -21 -2 127 14 -40 -53
25 -79 64 78 -42 -25 46 35
-3 44 57 88 -69 79 100 21
-21 27 -3 59 -43 -50 -89 -74
13 -117 -23 66 45 46 -30 -102
53 -27 -61 4 -16 -69 19 87
56 37 5 25 -1 -34 -16 127
14 26 -26 94 41 104 57 20
-2 -51 -36 57 7 7 -6 -54
-16 8 13 7 38 -54 127 6
-17 -66 -1 -23 -78 29 7 43
-5 14 17 -8 20 -40 -7 5
-7 49 9 -45 10 18 44 38
42 45 -62 118 -67 -89 3 -1
-74 -43 -53 -101 52 -31 -10 127
-68 -19 28 -11 -61 -55 14 -44
-66 -16 -56 2 19 117 -10 -47
23 -8 -127 7 -41 6 -81 -92
30 -91 80 -9 -17 15 -51 66
24 20 -15 34 10 -75 58 -16
00000000: a1db ccef f91f 0338 f9d7 d525 bde2 0e33
00000010: 0734 2102 c7fc d77f a647 e427 f75a 38fe
00000020: 078e fdd4 cdf0 0745 fe1d 0bf4 4b81 0cc6
00000030: f0c0 f3ff 21d8 14f7 e8d6 01e5 e716 1e05
00000040: f71f f5f2 e8c9 0661 f819 b1f9 acb6 e4f9
00000050: ed81 d600 0af6 f464 c732 01df f8e2 f6ee
00000060: f813 ebfe 7f0e d8cb 19b1 404e d6e7 2e23
00000070: fd2c 3958 bb4f 6415 eb1b fd3b d5ce a7b6
00000080: 0d8b e942 2d2e e29a 35e5 c304 f0bb 1357
00000090: 3825 0519 ffde f07f 0e1a e65e 2968 3914
000000a0: fecd dc39 0707 faca f008 0d07 26ca 7f06
000000b0: efbe ffe9 b21d 072b fb0e 11f8 14d8 f905
000000c0: f931 09d3 0a12 2c26 2a2d c276 bda7 03ff
000000d0: b6d5 cb9b 34e1 f67f bced 1cf5 c3c9 0ed4
000000e0: bef0 c802 1375 f6d1 17f8 8107 d706 afa4
000000f0: 1ea5 50f7 ef0f cd42 1814 f122 0ab5 3af0

sequential/model/block_11_project/Conv2D;StatefulPartitionedCall/sequential/model/block_11_project/Conv2D i1 [32, 1, 1, 192]
-36 13 -4 16 -25 -22 6 -15
-15 21 14 -47 -25 20 -12 -6
-3 -4 25 39 32 -9 18 5
-7 19 16 -47 17 -12 -16 -31
23 89 27 18 -38 40 -66 18
-52 0 -23 -2 11 16 4 -24
-18 -30 72 42 -35 52 -11 -5
-8 -40 -79 -1 2 -13 -3 -24
49 56 2 -3 -36 -13 -42 -37
-90 -30 -16 -35 2 2 4 32
-11 -4 5 -26 10 -74 81 20
-42 40 30 -54 -21 -16 -28 -60
-105 54 11 15 5 -13 30 -30
26 24 20 31 65 -6 42 -21
25 83 39 22 0 50 127 -47
-2 79 9 24 -13 -58 0 -40
-44 -22 51 20 -27 14 -19 23
-22 -1 -30 -19 32 7 20 11
64 25 -28 -12 -38 -35 65 -52
-1 -10 39 20 20 -21 -30 42
-40 -7 -66 -36 71 -2 -33 -78
-8 -25 -28 75 39 4 17 46
-3 -2 18 25 27 -50 6 -15
2 -41 8 11 57 86 -5 -7
61 11 -6 4 -13 -17 7 127
38 -31 40 -55 -3 -10 -17 -27
47 -11 -29 74 27 -44 16 -69
63 -34 -43 -30 20 -36 61 -57
-21 57 -28 43 -41 27 -40 -26
-5 -29 -73 41 13 -30 -20 40
-2 -36 -35 -16 -36 -45 67 0
-67 -27 85 -23 -22 -1 12 22
00000000: dc0d fc10 e7ea 06f1 f115 0ed1 e714 f4fa
00000010: fdfc 1927 20f7 1205 f913 10d1 11f4 f0e1
00000020: 1759 1b12 da28 be12 cc00 e9fe 0b10 04e8
00000030: eee2 482a dd34 f5fb f8d8 b1ff 02f3 fde8
00000040: 3138 02fd dcf3 d6db a6e2 f0dd 0202 0420
00000050: f5fc 05e6 0ab6 5114 d628 1eca ebf0 e4c4
00000060: 9736 0b0f 05f3 1ee2 1a18 141f 41fa 2aeb
00000070: 1953 2716 0032 7fd1 fe4f 0918 f3c6 00d8
00000080: d4ea 3314 e50e ed17 eaff e2ed 2007 140b
00000090: 4019 e4f4 dadd 41cc fff6 2714 14eb e22a
000000a0: d8f9 bedc 47fe dfb2 f8e7 e44b 2704 112e
000000b0: fdfe 1219 1bce 06f1 02d7 080b 3956 fbf9
000000c0: 3d0b fa04 f3ef 077f 26e1 28c9 fdf6 efe5
000000d0: 2ff5 e34a 1bd4 10bb 3fde d5e2 14dc 3dc7
000000e0: eb39 e42b d71b d8e6 fbe3 b729 0de2 ec28
000000f0: fedc ddf0 dcd3 4300 bde5 55e9 eaff 0c16

sequential/model/block_12_expand/Conv2D;StatefulPartitionedCall/sequential/model/block_12_expand/Conv2D i1 [192, 1, 1, 32]
-30 -55 64 72 -50 -3 -2 -35
-14 -52 0 24 -91 -21 -46 127
11 72 -20 -10 38 -60 -17 -13
34 -10 -3 50 -4 2 8 1
58 45 1 -99 39 -18 -22 -4
-44 51 46 -34 74 -49 127 -116
-61 -1 44 12 -50 60 12 27
28 -102 -13 -109 17 -28 -25 14
-37 -60 -18 -1 12 -13 -75 -21
-60 53 59 -17 -14 -71 45 -53
53 45 21 -127 42 -18 -60 90
3 46 -10 63 4 -6 38 2
2 61 6 -11 -7 127 7 -38
6 33 -55 -25 9 71 -9 19
-16 22 29 -6 -18 -12 -3 62
25 -70 2 -1 1 -22 6 10
3 35 -17 20 47 -31 9 52
52 -12 30 1 23 0 6 6
28 8 11 38 -19 -27 -6 9
-127 8 -84 -16 6 112 22 3
4 4 35 10 8 -127 12 -50
-18 -4 -11 25 -58 17 -9 63
-1 57 3 -13 13 -10 -21 86
46 -4 27 -17 3 -2 -5 10
-20 103 -29 90 -13 -116 -61 29
-26 -73 25 45 54 105 18 -41
-1 -94 -17 -70 15 8 -30 -66
30 -93 53 127 -25 -78 -18 -38
54 1 80 -59 35 26 54 30
-28 123 -76 -47 43 43 33 -5
-46 -55 72 84 -15 -56 -24 -41
-60 -110 49 -30 -76 65 127 -26
00000000: e2c9 4048 cefd fedd f2cc 0018 a5eb d27f
00000010: 0b48 ecf6 26c4 eff3 22f6 fd32 fc02 0801
00000020: 3a2d 019d 27ee eafc d433 2ede 4acf 7f8c
00000030: c3ff 2c0c ce3c 0c1b 1c9a f393 11e4 e70e
00000040: dbc4 eeff 0cf3 b5eb c435 3bef f2b9 2dcb
00000050: 352d 1581 2aee c45a 032e f63f 04fa 2602
00000060: 023d 06f5 f97f 07da 0621 c9e7 0947 f713
00000070: f016 1dfa eef4 fd3e 19ba 02ff 01ea 060a
00000080: 0323 ef14 2fe1 0934 34f4 1e01 1700 0606
00000090: 1c08 0b26 ede5 fa09 8108 acf0 0670 1603
000000a0: 0404 230a 0881 0cce eefc f519 c611 f73f
000000b0: ff39 03f3 0df6 eb56 2efc 1bef 03fe fb0a
000000c0: ec67 e35a f38c c31d e6b7 192d 3669 12d7
000000d0: ffa2 efba 0f08 e2be 1ea3 357f e7b2 eeda
000000e0: 3601 50c5 231a 361e e47b b4d1 2b2b 21fb
000000f0: d2c9 4854 f1c8 e8d7 c492 31e2 b441 7fe6

sequential/model/block_12_project/Conv2D;StatefulPartitionedCall/sequential/model/block_12_project/Conv2D i1 [32, 1, 1, 192]
13 -47 8 3 -51 -24 47 92
-46 52 7 4 27 15 6 34
8 -18 -96 2 2 -77 30 31
8 18 -66 -21 50 70 29 -11
-15 -8 20 -7 -12 0 -48 -7
45 -67 -7 15 -2 36 -25 -8
-44 -37 -18 2 -35 0 61 76
24 31 -9 47 -116 40 8 69
6 83 71 17 -32 3 -49 90
-17 -48 -18 5 115 -41 -32 -16
22 -9 -29 5 30 -17 -6 29
74 35 -7 19 13 -33 -1 -12
-89 33 -6 -4 12 -75 32 7
36 70 -21 67 -30 41 -30 -20
18 45 -10 -32 -29 -1 37 26
-81 2 13 12 30 -4 45 -4
-15 -58 10 -19 -14 14 24 -33
-2 13 -27 50 -31 100 -13 28
26 -16 61 4 24 -59 -3 -46
-9 -14 -58 74 14 20 -19 -7
23 43 33 23 -21 38 -16 25
-6 30 -42 -21 -41 -16 -33 41
27 26 9 -11 127 25 7 -38
-33 44 8 -77 -8 9 25 16
-4 -13 -4 -5 -7 36 37 1
30 13 38 -23 38 10 34 -8
11 50 44 -11 20 -19 -14 59
-62 20 88 -16 -25 -23 -8 20
-27 -21 18 -29 43 -30 32 -26
-2 -53 7 -26 -19 60 68 34
-25 -80 -61 -47 -31 20 -41 26
-12 -33 -73 25 -20 -41 26 -117
00000000: 0dd1 0803 cde8 2f5c d234 0704 1b0f 0622
00000010: 08ee a002 02b3 1e1f 0812 beeb 3246 1df5
00000020: f1f8 14f9 f400 d0f9 2dbd f90f fe24 e7f8
00000030: d4db ee02 dd00 3d4c 181f f72f 8c28 0845
00000040: 0653 4711 e003 cf5a efd0 ee05 73d7 e0f0
00000050: 16f7 e305 1eef fa1d 4a23 f913 0ddf fff4
00000060: a721 fafc 0cb5 2007 2446 eb43 e229 e2ec
00000070: 122d f6e0 e3ff 251a af02 0d0c 1efc 2dfc
00000080: f1c6 0aed f20e 18df fe0d e532 e164 f31c
00000090: 1af0 3d04 18c5 fdd2 f7f2 c64a 0e14 edf9
000000a0: 172b 2117 eb26 f019 fa1e d6eb d7f0 df29
000000b0: 1b1a 09f5 7f19 07da df2c 08b3 f809 1910
000000c0: fcf3 fcfb f924 2501 1e0d 26e9 260a 22f8
000000d0: 0b32 2cf5 14ed f23b c214 58f0 e7e9 f814
000000e0: e5eb 12e3 2be2 20e6 fecb 07e6 ed3c 4422
000000f0: e7b0 c3d1 e114 d71a f4df b719 ecd7 1a8b
